…
<p><img src="https://raw.githubusercontent.com/NazarPonochevnyi/Trained-CNN-for-Genre-classification/master/images/confusion_matrix_vgg16.png" alt="ماتریس درهم ریختگی" /></p>
<p>در مقایسه با ماتریس در هم ریختگی ریپوزیتوری مرجع:</p>
<p><img src="https://raw.githubusercontent.com/Hguimaraes/gtzan.keras/master/data/assets/cmcnngtzan.png" alt="توضیح تصویر" /></p>
<p>مدل را  با اجرای دستور زیر میبینیم:</p>
<pre><code>model.summary()

 _________________________________________________________________
Layer (type)                 Output Shape              Param #   
=================================================================
input_1 (InputLayer)         (None, 128, 129, 3)       0         
_________________________________________________________________
block1_conv1 (Conv2D)        (None, 128, 129, 64)      1792      
_________________________________________________________________
block1_conv2 (Conv2D)        (None, 128, 129, 64)      36928     
_________________________________________________________________
block1_pool (MaxPooling2D)   (None, 64, 64, 64)        0         
_________________________________________________________________
block2_conv1 (Conv2D)        (None, 64, 64, 128)       73856     
_________________________________________________________________
block2_conv2 (Conv2D)        (None, 64, 64, 128)       147584    
_________________________________________________________________
block2_pool (MaxPooling2D)   (None, 32, 32, 128)       0         
_________________________________________________________________
block3_conv1 (Conv2D)        (None, 32, 32, 256)       295168    
_________________________________________________________________
block3_conv2 (Conv2D)        (None, 32, 32, 256)       590080    
_________________________________________________________________
block3_conv3 (Conv2D)        (None, 32, 32, 256)       590080    
_________________________________________________________________
block3_pool (MaxPooling2D)   (None, 16, 16, 256)       0         
_________________________________________________________________
block4_conv1 (Conv2D)        (None, 16, 16, 512)       1180160   
_________________________________________________________________
block4_conv2 (Conv2D)        (None, 16, 16, 512)       2359808   
_________________________________________________________________
block4_conv3 (Conv2D)        (None, 16, 16, 512)       2359808   
_________________________________________________________________
block4_pool (MaxPooling2D)   (None, 8, 8, 512)         0         
_________________________________________________________________
block5_conv1 (Conv2D)        (None, 8, 8, 512)         2359808   
_________________________________________________________________
block5_conv2 (Conv2D)        (None, 8, 8, 512)         2359808   
_________________________________________________________________
block5_conv3 (Conv2D)        (None, 8, 8, 512)         2359808   
_________________________________________________________________
block5_pool (MaxPooling2D)   (None, 4, 4, 512)         0         
_________________________________________________________________
sequential_1 (Sequential)    (None, 10)                2099978   
=================================================================
Total params: 16,814,666
Trainable params: 16,702,090
Non-trainable params: 112,576
_________________________________________________________________
</code></pre>
<p><a href="https://github.com/NazarPonochevnyi/Trained-CNN-for-Genre-classification/blob/master/classification_cnn_vgg16.ipynb">برای دیدن فایل ژوپیتر بر روی این نوشته کلیک کنید.</a></p>
…
